model.tflite (tflite, 377140 bytes, 9 tensors)

sequential/conv2d/BiasAdd/ReadVariableOp f4 [32]
0	0xbc9275e9	-0.01787849
1	0x3cb47299	0.0220273
2	0xb97864f8	-0.00023688737
3	0x3b3fe5d2	0.002928127
4	0xbb9aeecb	-0.0047281734
5	0x3b25c35e	0.002529345
6	0xba836e3d	-0.001002736
7	0xba450c50	-0.00075167883
8	0x3b6baf2a	0.003596256
9	0x3c2c3fff	0.010513305
10	0xbc1fd224	-0.009754691
11	0xbc89fa07	-0.016842855
12	0x3c62fc61	0.013854117
13	0xbc356e1a	-0.011073614
14	0xbc9d3ce3	-0.019194072
15	0xbb0a561b	-0.0021108452
16	0xbc7d9ab5	-0.01547878
17	0x3cca3fdc	0.024688654
18	0xbbf7daef	-0.0075639407
19	0xbb3d5304	-0.0028888592
20	0x3bb54e2e	0.0055330014
21	0x3baafb22	0.0052179256
22	0xbae87b56	-0.0017736952
23	0xbaac2315	-0.0013133014
24	0x3b727e36	0.0037001497
25	0xbc70aeac	-0.0146900825
26	0x3c8a0577	0.016848309
27	0x39d42f93	0.00040471237
28	0x3c169349	0.009190389
29	0xbbf5d415	-0.007502089
30	0x3b1599ad	0.0022827194
31	0xbba41cb2	-0.0050083036

sequential/conv2d_1/BiasAdd/ReadVariableOp f4 [32]
0	0x3c308bad	0.010775489
1	0xbc00924b	-0.007847379
2	0xbc395d27	-0.011313713
3	0x3c0f684c	0.008752894
4	0xbc4afc02	-0.012389185
5	0x3c6a3f88	0.014297374
6	0xbbf26e9d	-0.00739844
7	0xbaf397cc	-0.0018584668
8	0x3ab2caaa	0.0013640721
9	0xbb8498a5	-0.004046517
10	0xbbf53ff0	-0.0074844286
11	0xbc112cf0	-0.008860812
12	0xbc140b25	-0.00903586
13	0x3bbe1862	0.0058012465
14	0x3c8f4c6f	0.017492501
15	0x3c6f8113	0.014618176
16	0xbc27173e	-0.010198412
17	0xbbd56196	-0.0065118773
18	0x3b39ce87	0.002835186
19	0xbc286b99	-0.0102795595
20	0x3b60b113	0.0034285232
21	0xbc793611	-0.015210644
22	0x3bc03a42	0.00586632
23	0xbc127c7a	-0.00894081
24	0x3b2aad19	0.0026043116
25	0xbbab6000	-0.00522995
26	0xbbd58ac5	-0.0065167868
27	0x3c668dfb	0.014071937
28	0xba5b22f6	-0.00083593966
29	0xbc2564cd	-0.010094834
30	0x3b26350e	0.0025361213
31	0x3c47762a	0.012174169

sequential/conv2d_2/BiasAdd/ReadVariableOp f4 [32]
0	0xb9cf15bf	-0.0003949832
1	0x3c12f414	0.008969326
2	0xbacf2ee7	-0.0015806825
3	0xbb827f54	-0.003982464
4	0xbb356cee	-0.0027683335
5	0x3c2b0422	0.010437997
6	0x3b27c466	0.002559924
7	0xbc58442d	-0.013199848
8	0xbbacdd21	-0.005275384
9	0x3c97fcd3	0.018553173
10	0x3c3b668a	0.011438021
11	0xbbca60cb	-0.0061760894
12	0xbb8da53a	-0.004322675
13	0xbb1ec8c3	-0.002422855
14	0x3b26a015	0.0025425006
15	0xbc308c40	-0.010775626
16	0xbbb04ce7	-0.005380261
17	0x3b89e3d3	0.004208067
18	0xba9bf951	-0.0011899864
19	0x3c12b13e	0.008953391
20	0x3bce89e6	0.00630306
21	0x3ab02e71	0.0013441575
22	0xbbfc8754	-0.007706562
23	0xbc44950b	-0.011998425
24	0xbbe0dabb	-0.006862012
25	0xbafee409	-0.0019446622
26	0x3aa6cf42	0.0012726563
27	0xbc720107	-0.014770753
28	0xbbb0f51b	-0.0054003126
29	0xbb07aec2	-0.002070353
30	0xbb284a40	-0.0025679022
31	0xbc0cae4d	-0.008586478

sequential/conv2d/Conv2D f4 [32, 3, 3, 3]
0	0x3d8edb18	0.069753826
1	0x3dc6c548	0.09705597
2	0x3cf11c7e	0.029432531
3	0x3da96dac	0.082728714
4	0x3dac0f22	0.08401324
5	0x3e0ec6f8	0.13943088
6	0x3dec655f	0.115427725
7	0xbc51fd9e	-0.012816815
8	0xbe0bb695	-0.13643868
9	0x3e21a01e	0.15783736
10	0x3e249212	0.16071346
11	0x3cf1247c	0.029436342
12	0xbd90b065	-0.070648946
13	0xbcb41f07	-0.021987451
14	0x3df079f2	0.11742009
15	0xbd8ceaac	-0.068806976
16	0x3d6adaa6	0.057337426
17	0x3e07d12d	0.13263388
18	0x3e1692a8	0.14704382
19	0xbc8208b6	-0.015873294
20	0x3d932399	0.07184524
21	0xbb22265b	-0.00247421
22	0xb985a91f	-0.00025493742
23	0x3da2867c	0.07935807
24	0xbcd3541f	-0.025796948
25	0xbdac669f	-0.08418011
26	0x3dedb7dd	0.11607335
27	0x3dd6f93e	0.10496758
28	0x3dd0cdf4	0.101955324
29	0x3b99aa10	0.0046894625
30	0xbd9f2536	-0.07770769
31	0xbdf8c592	-0.121470585
32	0xbd5fc507	-0.05463126
33	0x3ccd6886	0.025074255
34	0x3ddb96fc	0.10722157
35	0xbdd511fc	-0.10403821
36	0xbdf1a3f7	-0.11798852
37	0x3ddd8792	0.108168736
38	0x3d63669e	0.055517785
39	0xbd8d8922	-0.06910922
40	0xbd84a31b	-0.064764224
41	0xbdf801e0	-0.12109733
42	0x3de2ebec	0.11080155
43	0x3c81814b	0.015808722
44	0xbd2407d1	-0.040046517
45	0x3c97c5a0	0.018526852
46	0x3e05d3f3	0.13069133
47	0xbd81c49f	-0.063363306
48	0x3d8212d9	0.06351251
49	0xbddd8fe2	-0.10818459
50	0xbdff9af7	-0.12480729
51	0xbdd7ea05	-0.105426826
52	0x3ce67122	0.028130118
53	0x3de0fdc5	0.10985903
54	0xbdcc971b	-0.099897586
55	0xbaf7752a	-0.0018879522
56	0xbd955298	-0.07291144
57	0x3d5218fa	0.05129335
58	0x3dfbe983	0.12300398
59	0x3b8dd51f	0.0043283845
60	0xbd9fa8b8	-0.077958524
61	0x3db24bb0	0.087058425
62	0x3e0db666	0.1383911
63	0x3c70fcce	0.014708711
64	0xbe070044	-0.13183695
65	0x3bc9662a	0.006146212
66	0xbcb41758	-0.021983787
67	0xbdcc7262	-0.09982754
68	0xbd3d97bf	-0.046287294
69	0xbc857dc3	-0.01629532
70	0xbdf846b1	-0.12122858
71	0x3dcbc2a3	0.099492334
72	0x3c83fc5c	0.016111545
73	0xbdf82bcd	-0.12117729
74	0xbd4bd97e	-0.049767964
75	0x3d572c58	0.052532524
76	0xbdcdfdeb	-0.10058197
77	0x3e0a8a83	0.135294
78	0xbc07c387	-0.008286363
79	0x3dfecf07	0.12441831
80	0x3dc8aae8	0.09798223
81	0xbe0df596	-0.13863215
82	0x3e0106d5	0.12600262
83	0xbcb1aa28	-0.021687582
84	0x3d8fa1f4	0.07013312
85	0xbd8a0f7a	-0.06741233
86	0xbdc4a3eb	-0.09601577
87	0x3da4df13	0.080503605
88	0x3ce4d736	0.027934652
89	0x3d094105	0.033509273
90	0xbdaf1d85	-0.08550552
91	0xbdd0a779	-0.10188193
92	0x3d685129	0.056718025
93	0x3d2d89e1	0.04236782
94	0xbdc19c0c	-0.09453592
95	0x3e09d118	0.13458669
96	0xbc200f13	-0.009769219
97	0xbdc5c90f	-0.096574895
98	0x3ddb14ce	0.106973276
99	0x3d4fb078	0.050705403
100	0xbe055753	-0.13021593
101	0xbdce5102	-0.10074045
102	0x3d2a282c	0.041542217
103	0x3e0a02b4	0.13477594
104	0xbda45a50	-0.08025038
105	0xbda60289	-0.08105952
106	0x3d8459ce	0.064624414
107	0x3e08acf4	0.13347226
108	0x3d2221bb	0.03958295
109	0xbdd6ff30	-0.10497892
110	0xbc888ad8	-0.016667768
111	0x3e13d8e4	0.14438206
112	0x3d3ab881	0.045586113
113	0xbdbc56ca	-0.09196241
114	0x3de375c7	0.111064486
115	0x3d85f9ac	0.06541762
116	0x3df4a11d	0.119447924
117	0xbcbd7009	-0.023124712
118	0xbd4afded	-0.04955857
119	0x3cc5ad9c	0.024130635
120	0xbd1471ce	-0.036241345
121	0xbdbcba9a	-0.09215279
122	0x3d4c87e7	0.049934294
123	0x3bd25083	0.006418289
124	0x3d7df341	0.061999563
125	0x3d5283cb	0.05139522
126	0x3cd77a4f	0.026303438
127	0xbce34b20	-0.027745783
128	0xbdd020ad	-0.101624824
129	0xbdbd3e00	-0.09240341
130	0xbdd54082	-0.104126945
131	0xbda2001c	-0.07910177
132	0x3d9e027e	0.07715319
133	0x3dd712ce	0.105016336
134	0xbd976e11	-0.073940404
135	0xbdf2dd06	-0.11858563
136	0xbbb0b025	-0.005392092
137	0x3db48887	0.08815103
138	0xbd971354	-0.073767334
139	0x3dbfc2e5	0.09363345
140	0xbdb84e37	-0.08999293
141	0xbdcf6a98	-0.10127753
142	0xbdce54d3	-0.10074773
143	0x3c419dae	0.011817379
144	0xbd851f8a	-0.06500156
145	0x3e03beb1	0.12865712
146	0xbd5303b6	-0.05151721
147	0x3d08605f	0.03329503
148	0xbe057248	-0.13031876
149	0x3d619490	0.05507332
150	0x3ddfcdb3	0.10927906
151	0x3e1259ce	0.1429207
152	0x3dfb883e	0.122818455
153	0xbd6d30f8	-0.05790803
154	0xbceed461	-0.029154005
155	0x3e00e4ea	0.12587324
156	0xbd1f1af1	-0.038844053
157	0x3e032bc0	0.12809658
158	0xbd4426d8	-0.047888607
159	0x3dad294b	0.08455142
160	0xbdbc639e	-0.09198688
161	0x3cb7cd6b	0.022436818
162	0xbde323ac	-0.11090788
163	0xbd0ac07b	-0.03387497
164	0x3df48b9d	0.119406916
165	0xbddc4f98	-0.10757369
166	0xbde8b9db	-0.11363574
167	0x3c9bfb64	0.01904077
168	0xbc536126	-0.01290158
169	0xbcbeb53d	-0.02327978
170	0x3c2cc8d7	0.010545931
171	0xbdc807d3	-0.09767117
172	0xbb301896	-0.0026870123
173	0xbd6580a5	-0.056030888
174	0x3d83af1e	0.06429885
175	0xbde08f3e	-0.10964821
176	0xbcb6d86f	-0.02232
177	0x3d5eaeda	0.05436597
178	0xbc8c7233	-0.017144298
179	0x3d9226e6	0.071363255
180	0x3e173f9b	0.14770357
181	0x3de2a266	0.11066131
182	0x3d8e7332	0.069555655
183	0xbd6aa20a	-0.05728344
184	0xbd7ffc0f	-0.06249624
185	0x3ca59a49	0.02021517
186	0x3de2d8f1	0.110765345
187	0x3bd62a6e	0.0065358197
188	0x3dba5a75	0.090992846
189	0x3d509994	0.050927714
190	0x3d86ed2e	0.06588207
191	0x3df3a3e8	0.11896497
192	0xbd1282b7	-0.03576919
193	0x3de88893	0.113541745
194	0xbdf3c6d1	-0.119031556
195	0x3dbb9192	0.09158625
196	0xbe085cc9	-0.13316645
197	0xbd29bc4c	-0.04143934
198	0x3d43e5eb	0.04782669
199	0x3d994885	0.07484535
200	0x3db4fe30	0.08837545
201	0xbd887607	-0.06663137
202	0xbdade0ff	-0.0849018
203	0xbcfe7b2f	-0.031064598
204	0x3cfa9dbd	0.030592794
205	0xbd0c3fc9	-0.034240518
206	0x3d9345d0	0.0719105
207	0xbd95c642	-0.07313205
208	0xbd790441	-0.060795072
209	0x3d19733b	0.037463408
210	0x3dd50afb	0.10402485
211	0x3dd420fc	0.10357854
212	0x3c9149bd	0.017735356
213	0x3d6a066b	0.057135027
214	0xbe01b6b1	-0.12667347
215	0xbda584af	-0.08081948
216	0xbdb7f4eb	-0.08982261
217	0xbd618bd6	-0.055065
218	0x3cca134b	0.024667403
219	0x3decca88	0.11562067
220	0xbd187a2d	-0.03722589
221	0xbd09cbae	-0.03364151
222	0x3d6f0d7c	0.05836247
223	0xbd97fd2f	-0.07421338
224	0xbd07de29	-0.033170853
225	0xbe041970	-0.12900329
226	0x3d0e5cc1	0.034756426
227	0xbdb89b1d	-0.090139605
228	0x3d64d66e	0.05586856
229	0xbd68b1f8	-0.05681035
230	0x3b6d573f	0.0036215333
231	0x3e0f491a	0.1399273
232	0x3d8a2aaf	0.067464225
233	0x3d9abb4c	0.07555255
234	0xbd5d74b9	-0.054066394
235	0x3e065213	0.13117246
236	0x3d998729	0.07496483
237	0x3dc7cec4	0.09756234
238	0xbdfc7962	-0.123278394
239	0xbd75a7dc	-0.059974536
240	0xbdf5a189	-0.11993701
241	0x3dd8965d	0.105755545
242	0xbd235ade	-0.03988158
243	0x3d64d053	0.055862736
244	0xbdfa866a	-0.12232669
245	0xbdc91fc5	-0.09820513
246	0x3d962616	0.07331483
247	0x3deaee83	0.11471274
248	0xbdfb069e	-0.122571215
249	0xbde285d5	-0.11060683
250	0x3d123edd	0.035704482
251	0xbddbf239	-0.1073956
252	0xbdebe5ae	-0.11518417
253	0x3bd4480e	0.006478316
254	0x3daff299	0.08591194
255	0xbc9892dc	-0.018624716

sequential/conv2d_1/Conv2D f4 [32, 3, 3, 32]
0	0xbe1c70f0	-0.15277457
1	0x3e0048ca	0.12527767
2	0x3d609d94	0.05483778
3	0xbd81b1b9	-0.06332726
4	0xbd518e05	-0.05116083
5	0x3e08fa21	0.13376667
6	0x3dffb9ba	0.124865964
7	0xbd0f2cad	-0.034954716
8	0x3dffb64d	0.12485943
9	0x3e0acc7c	0.13554567
10	0xbc636378	-0.013878696
11	0xbe15144a	-0.14558521
12	0xbd99741c	-0.07492849
13	0x3dbf921d	0.09354041
14	0xbded6470	-0.115914226
15	0xbcac9a98	-0.02106981
16	0xbdd2668d	-0.10273466
17	0x3dab25f8	0.08356851
18	0xbd6baed3	-0.057539772
19	0xbb959d74	-0.004565889
20	0x3df9ea1d	0.12202857
21	0xbd51343f	-0.051075216
22	0x3dd8541c	0.105629176
23	0xbdbdcc3f	-0.092674725
24	0xbd87ce97	-0.06631201
25	0xbcb29e53	-0.02180401
26	0x3ad9d5ba	0.0016619482
27	0x3dd510b0	0.104035735
28	0x3e08919c	0.13336796
29	0xbdb379c1	-0.08763457
30	0xbdb4dda7	-0.08831339
31	0xbde94539	-0.11390156
32	0x3d471589	0.048604522
33	0xbdb23325	-0.08701161
34	0x3e2715f8	0.16316974
35	0xbda14c09	-0.07875831
36	0x3b27ea4a	0.0025621825
37	0x3c9ce275	0.019150952
38	0x3e317e2d	0.17333288
39	0x3c4fe8c9	0.012689778
40	0xbcc00b53	-0.0234429
41	0x3db942b1	0.090459235
42	0x3e0e4dae	0.1389682
43	0xbc091177	-0.00836598
44	0x3e12c038	0.14331138
45	0x3d89c334	0.06726685
46	0xbd020dc8	-0.031751424
47	0xbe055713	-0.13021497
48	0xbbdd643f	-0.006756335
49	0xbda0e560	-0.0785625
50	0x3d88f855	0.066879906
51	0x3da434e0	0.080178976
52	0x3dae18cd	0.08500824
53	0x3dfad05e	0.12246774
54	0x3d65185e	0.05593144
55	0xbd964eaf	-0.073392265
56	0xbdfb7203	-0.122776054
57	0xbcd0a685	-0.025470028
58	0x3d873281	0.0660143
59	0x3d1dd762	0.038535483
60	0x3e0eed7e	0.13957784
61	0xbdd9cfd4	-0.10635343
62	0xbdab9351	-0.08377708
63	0xbc45060a	-0.012025366
64	0x3dfbdd01	0.122980125
65	0xbd8c3498	-0.06845969
66	0xbdc87d1d	-0.097894885
67	0x3d6df0e7	0.05809107
68	0x3d7d83b9	0.0618932
69	0x3db657bb	0.08903452
70	0x3df29783	0.11845305
71	0xbdc7dbf4	-0.097587496
72	0xbe0cd8ef	-0.13754629
73	0x3e00a4d9	0.12562884
74	0xbd07cce4	-0.033154383
75	0xbda62a70	-0.08113563
76	0x3d33d1d4	0.04390128
77	0x3da47143	0.080294155
78	0xbdb8d591	-0.090251096
79	0xbe0693c2	-0.13142303
80	0x3bc078e6	0.005873787
81	0xbd89a60d	-0.06721125
82	0x3decf9f7	0.115711145
83	0x3d979f10	0.07403386
84	0x3caa48b6	0.020786624
85	0x3c57eede	0.013179509
86	0x3e04c816	0.12966952
87	0x3e1cb39f	0.15302895
88	0xbdbd8377	-0.092535906
89	0xbda543c4	-0.08069566
90	0xbcc65473	-0.02421019
91	0xbc392a6b	-0.011301617
92	0xbd99e67a	-0.07514663
93	0x3c918ce8	0.017767385
94	0x3df0318e	0.11728202
95	0x3d52738b	0.05137972
96	0xbd2e308f	-0.042526778
97	0xbd9fddd8	-0.07805985
98	0x3dbfaf6d	0.09359632
99	0xbc0b0826	-0.008485829
100	0xbd8aa985	-0.067706145
101	0x3bbeef18	0.005826842
102	0xbd9b6d14	-0.075891644
103	0xbdab0fdc	-0.08352634
104	0xbbb28af9	-0.0054486957
105	0xbdd8b528	-0.10581428
106	0x3e072a67	0.13199769
107	0xbc6a09b6	-0.014284542
108	0x3dbdab2c	0.09261164
109	0xbe109cd8	-0.14122331
110	0xbdcf34ca	-0.101174906
111	0x3d53c20c	0.05169873
112	0x3dd359e0	0.10319877
113	0x3ce216f4	0.027598836
114	0xbe284eda	-0.1643633
115	0xbdba83ea	-0.09107192
116	0x3e13a4e2	0.14418367
117	0x3dda9a60	0.10673976
118	0xbd69a206	-0.057039283
119	0xbd6142d0	-0.054995358
120	0x3d88c89a	0.06678887
121	0xbda9a8e2	-0.08284165
122	0x3d688d82	0.056775577
123	0xbdea2e1b	-0.11434575
124	0xbb39cb37	-0.0028349885
125	0x3d774103	0.060364734
126	0x3d84e38a	0.06488712
127	0xbdc265c7	-0.09492069
128	0xbbfb7bc4	-0.007674666
129	0x3d3c3e9a	0.04595814
130	0x3e12663a	0.14296809
131	0x3d7a9200	0.061174393
132	0xbdc7dcf8	-0.09758943
133	0xbd1e7792	-0.03868825
134	0x3d824675	0.06361095
135	0x3d49ce3c	0.049268946
136	0x3df7dc03	0.12102511
137	0xbddd07d9	-0.107925124
138	0xbd3fc606	-0.04681971
139	0x3d9c9c6a	0.07647021
140	0xbe137da4	-0.14403397
141	0xbd8635a1	-0.06553198
142	0x3d5dd757	0.054160442
143	0xbcade624	-0.021227904
144	0xbc7a66c5	-0.015283291
145	0x3d41fdb8	0.047361106
146	0x3d4dd11b	0.050248247
147	0xbddb1490	-0.10697281
148	0x3de4f746	0.11179976
149	0xbde20894	-0.110367924
150	0x3da78a3a	0.081806615
151	0xbdcf5c4e	-0.101250276
152	0x3ddbcaf8	0.107320726
153	0xbda5873d	-0.08082435
154	0xbd06bf3e	-0.032897227
155	0xbdb0f59e	-0.08640598
156	0xbda7fde1	-0.082027204
157	0xbdbbf201	-0.09177018
158	0x3c861f26	0.016372275
159	0x3e305166	0.17218551
160	0xbd90fd3a	-0.07079549
161	0xbd3b3086	-0.045700572
162	0x3e163ddf	0.1467204
163	0x3bead282	0.007166208
164	0xbd1fda66	-0.03902664
165	0x3e0df49f	0.13862847
166	0x3d6a68a1	0.05722869
167	0xbc9f816e	-0.019470897
168	0x3dce6a91	0.1007892
169	0x3dfa7991	0.12230218
170	0x3d1e9a83	0.038721573
171	0xbd2b475a	-0.041816093
172	0x3de94cef	0.11391627
173	0xbcef2569	-0.029192643
174	0xbdb1fba0	-0.08690572
175	0xbdaa764c	-0.083233446
176	0x3d94f79a	0.07273789
177	0x3d8947a8	0.067031205
178	0xbdd752d5	-0.10513846
179	0x3e14ea78	0.14542568
180	0x3d93338b	0.071875654
181	0xbdbddb58	-0.09270352
182	0x3d92d22e	0.07168995
183	0x3d3cad4f	0.046063717
184	0x3cf2ad7a	0.029623736
185	0x3e1b0d20	0.15141726
186	0x3e0ab585	0.13545807
187	0xbd915495	-0.07096211
188	0xbd82e320	-0.06390977
189	0x3da7d5e2	0.08195092
190	0x3e1141cc	0.14185256
191	0x3dd2277e	0.10261439
192	0xbc8c9b3e	-0.017163869
193	0x3d507526	0.05089297
194	0x3e127cfa	0.14305487
195	0x3df60a6a	0.12013705
196	0xbe0a5106	-0.1350747
197	0xbd2470c2	-0.040146597
198	0xbb35a8be	-0.0027718986
199	0xbcf4f3b6	-0.029901367
200	0x3db9bedb	0.09069606
201	0x3c97695b	0.018482855
202	0x3c61fd62	0.013793321
203	0x3da6bbcf	0.081412904
204	0x3d06568a	0.032797374
205	0xbd81d587	-0.06339555
206	0x3df1987e	0.11796664
207	0x3e03fe0e	0.12889883
208	0x3deb5d9a	0.114924625
209	0x3e02555c	0.12727875
210	0xbdbff2a7	-0.09372454
211	0xbde4867f	-0.111584656
212	0x3dd6673c	0.10468909
213	0x3e0878ff	0.13327406
214	0x3d42bdd7	0.047544327
215	0x3e1df55a	0.15425625
216	0x3dc01015	0.093780674
217	0xbdc57ca3	-0.09642913
218	0x3e104c3d	0.14091583
219	0x3ba64646	0.005074295
220	0xbcb09229	-0.02155407
221	0xbe1a1a14	-0.1504901
222	0x3e1c3078	0.15252864
223	0x3dc0656a	0.09394343
224	0x3d249a77	0.04018637
225	0x3e1a463b	0.15065853
226	0x3d892816	0.06697099
227	0x3d9fd604	0.07804492
228	0x3d92e793	0.071730755
229	0x3ce80f18	0.02832751
230	0x3b04a36b	0.0020239006
231	0xbd7ee16d	-0.0622267
232	0x3d608fc1	0.054824594
233	0xbddbcdc6	-0.107326075
234	0xbc44d51a	-0.012013698
235	0x3dc4d09d	0.09610102
236	0x3e0ebe52	0.13939789
237	0x3aa450c5	0.0012536278
238	0x3c903286	0.017602216
239	0x3d6c2ee6	0.057661913
240	0xbd4101b1	-0.047120754
241	0xbd2924d5	-0.04129489
242	0xbc20d4e8	-0.009816386
243	0xbc3fd126	-0.01170758
244	0xbc2345f7	-0.009965411
245	0xbdee5065	-0.11636428
246	0x3c4c5da8	0.012473501
247	0xbc20f930	-0.009825036
248	0xbde584bf	-0.1120696
249	0x3e0674be	0.13130471
250	0xbdbfad8b	-0.093592726
251	0xbdb798c3	-0.08964684
252	0x3d9e9de6	0.077449605
253	0x3c3d7688	0.011563905
254	0x3e09dd2e	0.1346328
255	0x3dd770cf	0.105195634

sequential/conv2d_2/Conv2D f4 [32, 3, 3, 32]
0	0xbd0baad6	-0.03409847
1	0x3d948c65	0.07253341
2	0x3ddaa026	0.10675077
3	0xbd780655	-0.060552914
4	0xbd57afcc	-0.052657887
5	0xbdf71c6f	-0.1206597
6	0xbdfa5a64	-0.12224272
7	0x3c7d02d8	0.0154425725
8	0x3dd8d2b7	0.10587066
9	0x3c5782b4	0.013153721
10	0x3d007b9d	0.031367887
11	0xbde48954	-0.11159006
12	0xbbc66fe3	-0.0060558184
13	0x3d4390c8	0.047745496
14	0xbd03f348	-0.032214433
15	0x3d4b9e97	0.04971179
16	0x3def1bbd	0.116752125
17	0xbd0e02c4	-0.034670606
18	0x3dfc1209	0.123081274
19	0x3cbcdbfd	0.023054117
20	0x3cc56768	0.02409716
21	0x3d8528c4	0.06501916
22	0xbdc8748e	-0.09787856
23	0x3bb86938	0.0056277774
24	0x3dfd020f	0.12353908
25	0x3e06db27	0.13169537
26	0xbddbd1c0	-0.10733366
27	0x3de2bae3	0.11070802
28	0xbd742845	-0.059608717
29	0x3d6ead01	0.058270458
30	0x3d51fad8	0.051264614
31	0xbd2a571e	-0.041586988
32	0x3dd02f5a	0.101652816
33	0x3d785dd1	0.060636345
34	0xbde41765	-0.11137275
35	0xbe0385fa	-0.12844077
36	0xbd9b2a7a	-0.07576461
37	0x3dc4f59e	0.0961716
38	0x3d0fb7f7	0.035087552
39	0xbe045c9f	-0.12925957
40	0xbdedff37	-0.11620944
41	0x3bd7e473	0.0065885126
42	0xbde948ac	-0.11390814
43	0x3d49dc07	0.0492821
44	0x3d36ec4f	0.044658955
45	0xbd9ae2d0	-0.07562792
46	0xbcca78ee	-0.024715867
47	0x3b41e288	0.0029584486
48	0xbde5f4c6	-0.112283275
49	0x3d63e528	0.055638462
50	0xbd9695cd	-0.07352791
51	0xbdbb18eb	-0.09135612
52	0xbdbe36e2	-0.09287812
53	0xbdd54106	-0.10412793
54	0x3d11aa04	0.03556253
55	0xbe195d78	-0.14977062
56	0xbb9943a7	-0.0046772542
57	0x3d53b431	0.051685516
58	0xbe0635bc	-0.13106436
59	0xbd552055	-0.052032787
60	0x3d02c5db	0.03192697
61	0x3da39c01	0.0798874
62	0x3d42929f	0.04750311
63	0x3dddd25e	0.1083114
64	0x3dc39849	0.095505305
65	0xbe2cbf3d	-0.16869827
66	0x3d2a9679	0.04164741
67	0x3d93088e	0.07179366
68	0xbe034d84	-0.12822539
69	0x3e1595a7	0.14607869
70	0x3d485561	0.04890955
71	0x3d524ceb	0.051342886
72	0x3c882825	0.016620705
73	0x3c4f2685	0.012643461
74	0xbe000ad7	-0.12504135
75	0x3dd865ff	0.10566329
76	0x3d22869b	0.03967915
77	0x3d99cf2e	0.075102195
78	0xbd0265c0	-0.031835318
79	0xbc81d14d	-0.015846873
80	0xbdaa80eb	-0.083253704
81	0x3c8aa9f8	0.01692675
82	0x3dc8eba7	0.09810572
83	0x3d6d0ce4	0.05787362
84	0xbd5deb49	-0.054179464
85	0xbe0f2651	-0.1397946
86	0xba414489	-0.0007372578
87	0xbd1f92fb	-0.03895853
88	0x3ddbffe0	0.10742164
89	0x3dc331cd	0.09530983
90	0xbde34c65	-0.110985555
91	0xbcde4f2a	-0.027137358
92	0x3d060b71	0.032725755
93	0x3d7bf12a	0.06150929
94	0x3d9f1470	0.0776757
95	0x3dd76a63	0.105183385
96	0xbdfebee7	-0.124387555
97	0xbdcfe2de	-0.10150693
98	0x3d4c3781	0.04985762
99	0x3d6d0310	0.05786425
100	0x3dc5a7f7	0.096511774
101	0xbe05b82a	-0.13058534
102	0x3cd760b7	0.026291234
103	0xbda8c4b2	-0.08240642
104	0x3c864120	0.016388476
105	0xbb5633f9	-0.0032684787
106	0x3b9325ce	0.0044905907
107	0x3da85b7d	0.08220575
108	0x3bf4bd1c	0.0074688327
109	0xbd786ecc	-0.06065254
110	0x3ce744bf	0.028231023
111	0x3e09a4d7	0.13441788
112	0x3dd1a00c	0.10235605
113	0x3d146f36	0.03623887
114	0xbdf57962	-0.119860426
115	0xba0f5f69	-0.00054692343
116	0xbdf21303	-0.118200324
117	0x3dcc7ca4	0.09984711
118	0x3dbec86a	0.0931557
119	0xbe00237d	-0.12513538
120	0xbc5c6818	-0.013452552
121	0x3e075553	0.13216142
122	0xbe0be71b	-0.13662378
123	0xbd95ccf0	-0.07314479
124	0x3d00cc97	0.031445112
125	0x3d0c8acc	0.034312055
126	0x3e0362e7	0.12830697
127	0xbc2fc5c6	-0.010728305
128	0xbbbbea4f	-0.005734719
129	0xbd183c58	-0.037166923
130	0xbe0b15cb	-0.13582532
131	0x3ddb3532	0.107035056
132	0xbd0912f9	-0.03346536
133	0xbe0460a2	-0.12927487
134	0xbc740cb7	-0.01489561
135	0xbe0d0944	-0.13773066
136	0xbdf7afc2	-0.1209407
137	0x3dcf1dc3	0.101130985
138	0xbcc3b496	-0.023889821
139	0x3b9de6c5	0.0048187696
140	0x3de2491b	0.110491
141	0xbbab9be9	-0.005237092
142	0x3dd8b640	0.105816364
143	0xbd8b0a6a	-0.06789096
144	0xbc57c017	-0.013168356
145	0xbd0a0f00	-0.03370571
146	0xbcfd99dd	-0.030957157
147	0xbcc43c55	-0.02395455
148	0x3c622dfc	0.013804909
149	0xbb995e98	-0.004680466
150	0xbd4bf1e6	-0.04979124
151	0xbe10192a	-0.140721
152	0x3d9e133b	0.07718512
153	0xbc3e7b5d	-0.011626092
154	0xbda53c43	-0.08068135
155	0x3babca91	0.0052426537
156	0xbdc5d2e4	-0.09659365
157	0x3deac74b	0.11463793
158	0xbe14ddf3	-0.14537792
159	0x3dcf3454	0.10117403
160	0xbd8e43d3	-0.0694653
161	0xbe0fbe6d	-0.14037485
162	0xbb03dd8d	-0.0020121068
163	0x3d93bf4b	0.072142206
164	0xbe0db67b	-0.13839142
165	0x3ca30e76	0.019904356
166	0x3e1144e5	0.14186437
167	0xbda00124	-0.078127176
168	0x3ca14ff0	0.019691437
169	0x3dc8abb7	0.09798377
170	0x3d01f523	0.03172792
171	0x3d8a7f75	0.06762592
172	0x3cad682d	0.021167839
173	0x3da3a7ef	0.07991015
174	0x3e1a3fec	0.15063447
175	0x3e17a113	0.14807539
176	0x3df9035a	0.121588424
177	0xbdcaa6ac	-0.098950714
178	0xbdc2cba5	-0.09511498
179	0xbc9c23f6	-0.019060116
180	0xbdf1d868	-0.11808854
181	0x3ddfdb8a	0.10930546
182	0x3d8fb476	0.07016842
183	0x3d2fac1b	0.042888742
184	0x3df6c59d	0.120494105
185	0xbd6316ce	-0.05544167
186	0x3e04c59c	0.12966007
187	0xbdfbeffc	-0.12301633
188	0x3cab4b5c	0.020909958
189	0xbcf6d72f	-0.030131904
190	0xbb75d73b	-0.003751232
191	0xbdd225e3	-0.102611326
192	0x3e0fe79e	0.14053199
193	0xbe0372e8	-0.12836802
194	0xbe14b211	-0.14521052
195	0x3dbb2712	0.091383114
196	0x3c37c583	0.011216524
197	0x3e0aa682	0.1354008
198	0xbc3f6e68	-0.011684038
199	0x3da3fd35	0.0800728
200	0x3cb2c159	0.021820711
201	0x3c24bc1c	0.010054614
202	0x3b61c6ee	0.0034450847
203	0x3d6cdd17	0.057828035
204	0x3df5d4c3	0.12003472
205	0xbd37459f	-0.04474413
206	0xbca16988	-0.019703642
207	0x3e1126dd	0.14174981
208	0xbdc949a7	-0.09828501
209	0xbb19db37	-0.002347661
210	0x3d6ce0d0	0.057831585
211	0x3d74c2a0	0.05975592
212	0xbaaa09a2	-0.0012972842
213	0x3d0af0b0	0.033920944
214	0x3ded921a	0.11600132
215	0xbd88ba15	-0.06676117
216	0x3de7d370	0.113196254
217	0x3d65a8d7	0.05606922
218	0xbd380a0b	-0.044931453
219	0xbd1e6ace	-0.038676076
220	0x3d77fd7a	0.06054447
221	0xbd134311	-0.03595263
222	0x3b0a31c0	0.0021086782
223	0xbd517f8f	-0.05114704
224	0xbd5bae9b	-0.053633314
225	0x3d65c5e2	0.05609692
226	0xbd44b6ae	-0.04802578
227	0x3d5296ad	0.051413227
228	0x3d84514a	0.06460817
229	0x3bc5c872	0.006035858
230	0x3e1daa4d	0.15396996
231	0x3d278cb5	0.040905673
232	0xbdfe7ccb	-0.12426146
233	0x3e0cbcb0	0.13743854
234	0x3ded7a47	0.11595588
235	0x3cff5703	0.03116942
236	0xbbe58392	-0.00700421
237	0xbd887044	-0.06662038
238	0x3d465f8c	0.048430964
239	0x3dd26ca1	0.102746256
240	0x3d99719a	0.07492371
241	0x3cf8ef2c	0.030387484
242	0x3db76559	0.089548774
243	0x3d68adbc	0.05680631
244	0xbc634245	-0.01387078
245	0x3d907946	0.07054381
246	0x3d47d12d	0.04878347
247	0x3dbdbe0a	0.09264763
248	0x3e0d270d	0.13784428
249	0x3dead9f5	0.11467353
250	0xbb8556cd	-0.0040691854
251	0x3dc2fa4b	0.09520396
252	0x3d9db6b4	0.077008635
253	0x3d1fcdab	0.0390145
254	0x3d881811	0.06645215
255	0x3db8c19b	0.09021302

sequential/dense/BiasAdd/ReadVariableOp f4 [64]
0	0x3b0bcca9	0.0021331704
1	0xbb75b22f	-0.003749024
2	0x3bb9fbf5	0.0056757876
3	0xbbbba600	-0.005726576
4	0xbb12550d	-0.0022328526
5	0x3bf602ad	0.007507643
6	0x3a25f0d0	0.00063301343
7	0xbc26fbcd	-0.01019187
8	0x3bdde295	0.0067713954
9	0x3bfaa6d3	0.0076492815
10	0xbb0a477d	-0.002109974
11	0xbc4d48e0	-0.012529582
12	0x3b80d437	0.003931548
13	0xbbc4b959	-0.0060035405
14	0x3be6788a	0.0070334123
15	0xbbaeff60	-0.0053405017
16	0x3b7249f1	0.0036970342
17	0x3c6acdef	0.014331325
18	0x3c590080	0.013244748
19	0xbac45952	-0.0014980233
20	0x3af72b42	0.0018857496
21	0xbbc4a69f	-0.006001308
22	0x3bef2ab9	0.007298794
23	0xbbc48542	-0.005997331
24	0xbc1597e6	-0.009130454
25	0x3c246c0e	0.010035528
26	0xbba9b273	-0.0051787435
27	0xbbcccce8	-0.0062500127
28	0x3c497a9c	0.012297299
29	0x3b2505d2	0.002518047
30	0x00000000	0.0
31	0xbbffab1b	-0.00780238
32	0xbbd12fbd	-0.0063838647
33	0xbab881d8	-0.0014076782
34	0x3bdfcbc3	0.00682971
35	0x3bdfe534	0.006832743
36	0x3bee641e	0.0072751185
37	0xbadd44af	-0.0016881431
38	0x3bee0191	0.0072633703
39	0x3c090f42	0.008365454
40	0x3bee3f96	0.0072707636
41	0xbac8aa02	-0.0015309455
42	0xbc1fef3e	-0.00976163
43	0x3bc22d1c	0.0059257876
44	0x3c56dea0	0.013114601
45	0xbbefda73	-0.0073197423
46	0x3a3cd84f	0.00072038634
47	0x3baa3a64	0.005194949
48	0x3b46988c	0.0030303327
49	0xbba7699e	-0.005109026
50	0x00000000	0.0
51	0xbb9c473f	-0.0047692354
52	0xbc241c82	-0.010016562
53	0x3b9d1a04	0.004794361
54	0xbc262cad	-0.0101424875
55	0xbbc4936d	-0.00599902
56	0xbbaf1be7	-0.0053439024
57	0x3b5555e1	0.0032552409
58	0x00000000	0.0
59	0x3ae64b98	0.0017570136
60	0x3ba81f57	0.005130689
61	0x3c54850a	0.012971172
62	0xbbc7f736	-0.006102468
63	0xbb1c65fb	-0.0023864496

sequential/dense/MatMul f4 [64, 1152]
0	0xbd1eddfc	-0.03878592
1	0x3ce18a6c	0.027531825
2	0xbd2bca07	-0.041940715
3	0x3ad4fccc	0.0016249656
4	0x3bfc68c4	0.0077029187
5	0xbcb409e3	-0.02197737
6	0x3d05efe9	0.0326995
7	0xbd516774	-0.05112405
8	0x3d02f041	0.031967405
9	0x3ad2650c	0.0016051843
10	0xbd0f077b	-0.034919243
11	0x3d47d3e8	0.048786074
12	0xbcb47751	-0.02202955
13	0x3cead1fc	0.028664581
14	0x3c1da5f6	0.009622088
15	0xbd169cf8	-0.03677079
16	0x3cef7628	0.029231146
17	0x3c0ca30f	0.008583798
18	0x3d692fa7	0.05693021
19	0xbc6892cd	-0.014195156
20	0xbcf45b21	-0.02982861
21	0xbd737578	-0.0594382
22	0x3c30d3d9	0.010792696
23	0x3c1b3048	0.00947196
24	0xb9e50a66	-0.0004368603
25	0x3d69d55a	0.057088234
26	0xbd0cef32	-0.034407802
27	0xbd8529c8	-0.0650211
28	0x3d284f4c	0.04109125
29	0x3d88f5ed	0.066875316
30	0x3cb63eec	0.0222468
31	0x3d99b1ae	0.07504593
32	0xbd134529	-0.03595463
33	0x3c80e158	0.015732452
34	0x3d4a54a7	0.049397137
35	0x3c821f4e	0.015884068
36	0xbce5e7f5	-0.028064707
37	0x3d33d503	0.043904316
38	0x3cdbfbc4	0.02685345
39	0xbd5303b8	-0.05151722
40	0x3c8a3fed	0.016876185
41	0x3c3f8989	0.011690506
42	0xbc20f9c5	-0.009825175
43	0x3d6640c7	0.05621412
44	0x3cd895f5	0.026438693
45	0xbd7e9387	-0.06215241
46	0x3d55a2a7	0.05215707
47	0x3d8bbd6c	0.06823239
48	0xbc810fba	-0.01575457
49	0xbc7c5dba	-0.0154032055
50	0xbd0265ac	-0.031835243
51	0xbcb7f087	-0.02245356
52	0xbd2bdb63	-0.04195727
53	0xbc541527	-0.012944496
54	0xbd837944	-0.06419614
55	0xbd3b1370	-0.045672834
56	0x3a117203	0.00055483
57	0x3bd836fa	0.0065983506
58	0x3d1a3939	0.037652228
59	0xbd64e10a	-0.055878676
60	0x3c3ba461	0.011452765
61	0x3d52539d	0.05134927
62	0xbc0129c8	-0.007883497
63	0xbc7d54ec	-0.0154621415
64	0x3c2c2c91	0.010508672
65	0xbd19d5fb	-0.037557583
66	0xbd5382cc	-0.05163841
67	0x3d6fb7e7	0.058524992
68	0x3c323c2f	0.010878607
69	0x3dc8c632	0.09803428
70	0x3d28d95f	0.041222926
71	0x3bab3632	0.0052249664
72	0x3c2a965c	0.010411825
73	0xbd01d58d	-0.0316978
74	0x3cf2ace4	0.029623456
75	0xbb3957ec	-0.0028281165
76	0x3d35640d	0.04428487
77	0xbd8bc1a3	-0.06824043
78	0xbd4428a7	-0.04789033
79	0x3d0e0483	0.03467227
80	0xbc0e8dc4	-0.008700792
81	0xbcc0231f	-0.023454247
82	0x3d3a3c8e	0.045467906
83	0x3c843011	0.016136201
84	0xbd872a35	-0.06599847
85	0xbd35a542	-0.044347055
86	0xbd849740	-0.06474161
87	0x3bd61f90	0.0065345243
88	0xbd45bbaa	-0.048274674
89	0x3d085654	0.033285454
90	0x3c55791e	0.013029365
91	0x3d2cc83d	0.04218315
92	0x3c7a9fad	0.015296859
93	0xbc884755	-0.016635576
94	0x3d6359de	0.055505626
95	0xbdb317ce	-0.08744775
96	0x3cf16919	0.02946906
97	0x3d80dc79	0.06292052
98	0x3d376a85	0.04477932
99	0x3c82aae0	0.01595062
100	0xbcd95a79	-0.026532399
101	0x3c245a1b	0.010031248
102	0x3d5b60b2	0.053559013
103	0xbcd373ab	-0.02581199
104	0x389495f0	7.085118e-05
105	0xbd4bbda9	-0.04974142
106	0x3d2e44b7	0.042546
107	0xbbf504a4	-0.00747736
108	0xbcf71f76	-0.030166369
109	0x3cacc28f	0.021088867
110	0xbd3eadbd	-0.04655241
111	0x3d6d22b9	0.057894442
112	0x3c9d0f58	0.019172356
113	0x3cfc7741	0.030818583
114	0xbce44f38	-0.027869806
115	0x3c54d01f	0.012989073
116	0x3c453169	0.012035706
117	0xbd565a50	-0.052332222
118	0x3d657578	0.05602023
119	0xbd59393a	-0.05303309
120	0x3ce73c57	0.028227014
121	0xbb8a7612	-0.004225501
122	0x3d8b608a	0.06805523
123	0xbc92de1d	-0.017928177
124	0x3c2b1528	0.010442056
125	0xbd8fca02	-0.07020952
126	0xbd369108	-0.044571906
127	0x3d6c7a69	0.057733927
128	0xbca54a2b	-0.020176968
129	0xbce262ca	-0.027634997
130	0x3d988d37	0.074488096
131	0x3cb5d89e	0.022198018
132	0x3a51f437	0.0008009108
133	0x3cbda2f3	0.02314899
134	0xbd09a379	-0.033603165
135	0xbd10df89	-0.03536943
136	0xbd00c7be	-0.03144049
137	0x3cdeeccc	0.027212523
138	0x3d3f1284	0.046648517
139	0xbd3458a2	-0.04402984
140	0xbb8fa0dd	-0.00438319
141	0x3d388d61	0.045056704
142	0x3bf32374	0.007419998
143	0x3cc8c6fb	0.024508944
144	0xbd5ab250	-0.05339271
145	0xbd147657	-0.03624567
146	0xbd0db982	-0.034600742
147	0xbbd0d3ce	-0.0063729053
148	0xbd995bc8	-0.07488209
149	0xbcb5c6fa	-0.022189606
150	0x3ce81793	0.028331554
151	0x3caa6134	0.020798303
152	0xbc6eac05	-0.01456738
153	0x3ca80f6e	0.02051517
154	0x3d812e96	0.06307714
155	0x3d95c04c	0.07312068
156	0x3d0588cf	0.032601174
157	0x3ce65e15	0.028121034
158	0x3d677e10	0.056516707
159	0x3c0f746d	0.008755785
160	0xbc29add1	-0.0103563825
161	0xbd993f9b	-0.07482835
162	0x3d69bb57	0.057063427
163	0xbc708eca	-0.014682481
164	0x3d08ee5e	0.03343045
165	0x3d77f9ab	0.060540836
166	0xbd7b5d61	-0.06136835
167	0x3d87d80e	0.06633006
168	0x3c3f9f1a	0.011695648
169	0x3d8e0008	0.069336
170	0x3d8256f8	0.06364244
171	0xbd83d8ad	-0.06437812
172	0xbd2dffed	-0.042480398
173	0x3da08457	0.07837742
174	0xbd357921	-0.04430497
175	0x3d9d2739	0.07673497
176	0x3d0fd3a0	0.03511393
177	0x3c99437c	0.018708937
178	0x3d4bec99	0.049786184
179	0xbd437364	-0.047717467
180	0xbd8033e4	-0.06259897
181	0x3c32aa5a	0.010904873
182	0xbc65d150	-0.014026955
183	0x3d337a8e	0.04381805
184	0x3ca06b26	0.019582342
185	0xbd0f3244	-0.034960046
186	0x3db7f246	0.08981757
187	0x3d32bb69	0.04363576
188	0xbd991b99	-0.07475967
189	0xbccf1178	-0.025276884
190	0x3d0044a3	0.031315457
191	0xbd294fbd	-0.04133581
192	0xbd8169b7	-0.06318992
193	0x3c4a895f	0.012361853
194	0x3d015174	0.03157182
195	0xbda26666	-0.07929687
196	0x3d850776	0.06495564
197	0xbd22f9b4	-0.039788917
198	0xbc414cda	-0.011798108
199	0xbb267972	-0.0025401977
200	0xbd895a52	-0.0670668
201	0x3d85df64	0.06536749
202	0x3d1a72d5	0.03770717
203	0xbd41533f	-0.04719853
204	0xbd652db6	-0.055951796
205	0xbc8e247a	-0.017351378
206	0xbcf63c7c	-0.030058138
207	0x3c2bec01	0.010493279
208	0xbd4acac8	-0.049509794
209	0xbc43178a	-0.011907468
210	0x3d36ada6	0.044599198
211	0x3c62ae4c	0.013835501
212	0xbd8f00bc	-0.06982562
213	0xbd2e4231	-0.042543594
214	0x3d60dbd4	0.054897144
215	0x3d0ef58c	0.03490214
216	0xbc1bbef9	-0.009505981
217	0xbcb10e6a	-0.021613318
218	0xbd506bac	-0.050883934
219	0x3d765be5	0.06014623
220	0xbd1a8124	-0.037720814
221	0xbd948009	-0.07250983
222	0x3a672800	0.0008817911
223	0xbd33ca51	-0.043894116
224	0x3d8c4f32	0.06851043
225	0xbd8f1181	-0.069857605
226	0x3d83cbe8	0.064353764
227	0x3cc2ffe2	0.023803655
228	0x3be552f1	0.006998413
229	0xbd2ea64d	-0.042639066
230	0x3cee7fad	0.029113615
231	0xbccea7d5	-0.025226513
232	0xbd1e5e7a	-0.03866432
233	0xbd908050	-0.07055724
234	0xbd6d1066	-0.057876967
235	0xbd9d3bb3	-0.07677402
236	0xbc9fc3fa	-0.019502629
237	0xbd3a3b0b	-0.045466464
238	0xbd9a2ff2	-0.07528676
239	0xbcdc0d6c	-0.026861869
240	0x3cd97de8	0.026549295
241	0xbc048ba5	-0.0080899345
242	0x3c319261	0.010838122
243	0xbd3aea64	-0.04563369
244	0x3d866e1d	0.06563971
245	0xbda8c654	-0.08240953
246	0xbca216a9	-0.019786196
247	0x3d629662	0.055319197
248	0x3cc668d6	0.024219912
249	0x3cbdb422	0.023157183
250	0x3d6ef68c	0.058340594
251	0x3c30f336	0.0108001735
252	0xbc9e6fa4	-0.019340344
253	0xbd5a3103	-0.053269397
254	0xbd463bcb	-0.048396867
255	0xbd2e93f4	-0.042621568

sequential/dense_1/MatMul f4 [1, 64]
0	0x3ea1e10d	0.31617013
1	0xbe524da1	-0.20537426
2	0x3e591fb4	0.212035
3	0x3d7fe8c5	0.062477846
4	0xbea2f315	-0.31826082
5	0x3e416720	0.18886995
6	0x3e3ca3ca	0.18421856
7	0xbe14d22c	-0.14533299
8	0xbe8986b5	-0.26860586
9	0x3d8b1cc7	0.06792598
10	0x3e2995e7	0.1656109
11	0x3e812461	0.25223067
12	0xbe8615d2	-0.26188523
13	0xbe4cdf66	-0.20007095
14	0x3d2e1d5d	0.04250847
15	0x3d214e97	0.03938159
16	0xbe6c5321	-0.23078586
17	0x3dec9009	0.1155091
18	0xbd0e97bf	-0.034812685
19	0xbe9f43c4	-0.3110639
20	0xbe0d65e5	-0.13808401
21	0xbd95ce82	-0.07314779
22	0x3e09a4a7	0.13441716
23	0xbde21e74	-0.11040965
24	0xbe8d209c	-0.2756394
25	0xbd12fd9f	-0.035886403
26	0x3dede20a	0.11615379
27	0xbdcd2238	-0.10016292
28	0x3e8c14d8	0.27359653
29	0xbe8469f9	-0.258621
30	0xbcfc67a0	-0.030811131
31	0xbd06f68d	-0.032949973
32	0xbe8c1ac0	-0.2736416
33	0x3de6251d	0.112375475
34	0xbe7f4e95	-0.2493232
35	0x3dfad200	0.122470856
36	0x3dc0b4aa	0.09409459
37	0xbe62edc9	-0.2216102
38	0xbe36110a	-0.17779937
39	0x3e9d4757	0.3071849
40	0x3e2a62da	0.16639271
41	0xbe7ac89a	-0.24490586
42	0xbe720361	-0.23634101
43	0x3e800d6f	0.2501025
44	0x3daff43c	0.08591506
45	0xbe885bb2	-0.26632458
46	0xbe0e576a	-0.13900533
47	0xbe4c8126	-0.19971141
48	0xbe873c1e	-0.26413053
49	0x3dc2fa45	0.095203914
50	0xbe3da370	-0.18519378
51	0x3e3cad65	0.1842552
52	0xbe61c38f	-0.22047256
53	0x3dcc122d	0.09964404
54	0xbd4b8cd0	-0.049694836
55	0xbd21286f	-0.0393452
56	0x3df7c849	0.12098748
57	0x3db1fae5	0.086904325
58	0x3e5a99a0	0.21347666
59	0xbe0ee0b0	-0.13952899
60	0x3e7060a3	0.23474364
61	0x3e245798	0.1604904
62	0xbd1897a7	-0.037254002
63	0x3db3de1e	0.087826
